…
##### Demonstrating what happens when the chatbot doesn't recognise a question #####
> who won the spanish grand prix in 2015?
Sorry, I did not get that please ask again

##### Rule based/ little goodbye message #####
> Thank you
You are welcome.
> Bye
Bye! Nice talking to you. You take care now.

##### Retrieving the Convolutional network model and displaying it's accuracy #####
> Test the convolutional network
Model: "sequential_1"
_________________________________________________________________
Layer (type)                 Output Shape              Param #   
=================================================================
conv2d_1 (Conv2D)            (None, 28, 28, 32)        320       
_________________________________________________________________
max_pooling2d_1 (MaxPooling2 (None, 14, 14, 32)        0         
_________________________________________________________________
conv2d_2 (Conv2D)            (None, 14, 14, 32)        9248      
_________________________________________________________________
max_pooling2d_2 (MaxPooling2 (None, 7, 7, 32)          0         
_________________________________________________________________
conv2d_3 (Conv2D)            (None, 7, 7, 32)          9248      
_________________________________________________________________
max_pooling2d_3 (MaxPooling2 (None, 3, 3, 32)          0         
_________________________________________________________________
flatten_1 (Flatten)          (None, 288)               0         
_________________________________________________________________
dense_1 (Dense)              (None, 10)                2890      
=================================================================
Total params: 21,706
Trainable params: 21,706
Non-trainable params: 0
_________________________________________________________________

 Accuracy:  0.989 (98.9%)

##### NLP FOL Conversation #####
> The Melbourne Circuit is in Australia
> is Melbourne Circuit in Australia?
Yes.
> is Melbourne Circuit in Mexico?
No.
…
